intro-to-pytorch/model.pth (torch, 973672 bytes, 8 tensors)

fc1.weight f4 [256, 784]
0	0x3da7310e	0.08163653
1	0x3de23cff	0.1104679
2	0x3df387e9	0.11891157
3	0x3dae6fd9	0.08517427
4	0x3e034a66	0.1282135
5	0x3d8c43fb	0.06848904
6	0xbc9caf8a	-0.019126672
7	0x3e00023e	0.12500855
8	0x3efecf28	0.49767423
9	0x3f94909a	1.1606629
10	0x40002ac7	2.002611
11	0x3fd40052	1.6562598
12	0xbeb57a54	-0.3544489
13	0x3f461c35	0.7738679
14	0x3f388407	0.7207646
15	0xbe948e4d	-0.29014817
16	0x3fe6f894	1.804461
17	0x3fa98c39	1.3245918
18	0x3f9723bc	1.180778
19	0x3f8573e5	1.0425993
20	0x3e96228c	0.29323232
21	0x3d7d88ba	0.06189797
22	0x3db951f5	0.09048835
23	0x3dedeb48	0.11617142
24	0x3de4dfda	0.11175509
25	0x3d86973d	0.06571815
26	0x3de5f1a0	0.11227727
27	0x3d94427d	0.07239244
28	0x3dd39b94	0.103324085
29	0x3df0dd98	0.11761016
30	0x3d9ea08f	0.07745468
31	0x3e26912a	0.16266313
32	0x3e16c912	0.1472514
33	0x3ce1a187	0.027542843
34	0xbe06f23e	-0.13178346
35	0xbe323c6f	-0.17405866
36	0xbe642ef9	-0.22283544
37	0x3ee693af	0.4503455
38	0x3fd256cc	1.6432738
39	0x3f959144	1.1684957
40	0xbd601b52	-0.054713555
41	0xbf9e9ac4	-1.2390981
42	0xbf8969f7	-1.0735463
43	0xbf99f9dc	-1.2029376
44	0x3f8e34c7	1.1109856
45	0x3fa40cda	1.2816422
46	0xbdc9f641	-0.09861422
47	0x3e7bbf71	0.24584748
48	0xbc317a25	-0.010832344
49	0xbcec46b3	-0.028842306
50	0x3e1260fb	0.14294808
51	0x3e2604ea	0.16212812
52	0x3d9b1a2f	0.075733535
53	0x3de0a733	0.10969391
54	0x3def1680	0.116742134
55	0x3dfabc56	0.122429535
56	0x3d869810	0.06571972
57	0x3ddcc74a	0.10780199
58	0x3e01ed65	0.12688215
59	0x3dfced22	0.12349917
60	0x3df650eb	0.12027153
61	0x3d81ae04	0.06332019
62	0xbe0aa02f	-0.13537668
63	0xbf11524e	-0.5676621
64	0xbd77b535	-0.060475547
65	0xbe265d96	-0.16246638
66	0x3eef86fc	0.46782672
67	0x3eeb1a2c	0.45918405
68	0x3cf289ce	0.029606726
69	0xbf9e19ca	-1.235162
70	0xbff663a9	-1.9249164
71	0x3bbf2bba	0.00583407
72	0x3e8def00	0.27721405
73	0x3ed6aeaf	0.41930148
74	0xbe453e8c	-0.19262141
75	0xbd1f1a0c	-0.0388432
76	0xbe4d4894	-0.20047218
77	0xbe2ba7fe	-0.16763303
78	0xbd514e2f	-0.051099952
79	0x3ddc31ec	0.10751709
80	0x3dfdf2ae	0.12399803
81	0x3da26449	0.07929284
82	0x3e04b091	0.1295798
83	0x3d95c94e	0.073137864
84	0x3de84895	0.11341969
85	0x3dfa4f5c	0.12222168
86	0x3de497a1	0.111617334
87	0x3e340baf	0.17582582
88	0x3d993d49	0.07482392
89	0xbd0d8f22	-0.03456033
90	0xbe943b5a	-0.28951532
91	0xbf1fed0a	-0.6247107
92	0xbda0719f	-0.078341715
93	0x3e931d57	0.28733322
94	0x3edeacfc	0.43491352
95	0x3ecc0126	0.39844626
96	0xbe58b5f7	-0.21163164
97	0xbf3b7ac3	-0.73234195
98	0xbf59c975	-0.85073024
99	0xbd711c8c	-0.058865115
100	0xbe3704b5	-0.1787289
101	0x3dab7059	0.08371038
102	0x3e8e4484	0.27786648
103	0x3ecccb75	0.39998975
104	0xbe3b3d73	-0.1828516
105	0xbe609a97	-0.21933971
106	0xbe2363ed	-0.15956087
107	0x3d8b9ab6	0.06816618
108	0x3dd76e73	0.105191134
109	0x3d9d998a	0.07695301
110	0x3e022f84	0.12713438
111	0x3df67100	0.12033272
112	0x3db976a1	0.0905583
113	0x3d9edfa7	0.07757502
114	0x3deb7659	0.114971824
115	0x3df61de7	0.12017422
116	0xbc2451f2	-0.010029303
117	0xbc8a1b61	-0.016858758
118	0xbe52c51e	-0.20583007
119	0xbefca431	-0.49344018
120	0xbe7493ef	-0.23884557
121	0x3ee21dac	0.44163263
122	0xbf056e06	-0.5212101
123	0x3de10206	0.10986714
124	0x3e91cdae	0.28477234
125	0x3d2f1366	0.04274311
126	0xbeadc629	-0.33940247
127	0xbe89e549	-0.26932743
128	0x3e9cce82	0.30626303
129	0xbf7db5fe	-0.99105823
130	0x3c187469	0.009305098
131	0xbc904ad5	-0.017613808
132	0xbd842e4e	-0.064541444
133	0xbe3f77c1	-0.18698026
134	0xbdcd02be	-0.10010289
135	0xbc6c39de	-0.0144180935
136	0x3daec393	0.085333966
137	0x3d6cad92	0.057782717
138	0x3dc83e0a	0.09777458
139	0x3dd75ffc	0.105163544
140	0x3d964c55	0.07338778
141	0x3e0701ee	0.1318433
142	0x3dedd655	0.11613146
143	0x3dce3233	0.100681685
144	0x3c6c879b	0.014436628
145	0xbdc4a689	-0.096020766
146	0xbe7148f1	-0.23562981
147	0xbe3e3de6	-0.185783
148	0xbed3b4c6	-0.41348857
149	0x3eeaa645	0.4582998
150	0xbf594350	-0.84868336
151	0xbf3eb21c	-0.74490523
152	0xbe825a2f	-0.2545943
153	0x3facf81e	1.3513219
154	0x3ef870e3	0.48523626
155	0xbfc3cfce	-1.5297792
156	0x3eee63b2	0.46560436
157	0xbf3f8d9b	-0.7482545
158	0xbf04ba10	-0.5184641
159	0xbea497ab	-0.32146963
160	0xbcb3cf26	-0.021949362
161	0xbe218df7	-0.15776812
162	0xbe116406	-0.14198312
163	0xbcfc3b38	-0.030789956
164	0x3d84c5cc	0.06483039
165	0x3d2d94df	0.042378303
166	0x3d8713f8	0.065956056
167	0x3dc5a90d	0.096513845
168	0x3dd1b2d0	0.10239184
169	0x3dde9ab2	0.108693495
170	0x3e389aa4	0.1802774
171	0x3dfd0f04	0.1235638
172	0x3d5c5265	0.053789515
173	0xbe03e3fb	-0.12879936
174	0xbe766f61	-0.24065925
175	0xbdbd72d2	-0.09250416
176	0xbea1d299	-0.31605986
177	0x3f2481cd	0.6426056
178	0xbefcd544	-0.4938146
179	0xbf000c1d	-0.50018483
180	0xbee9374f	-0.4555001
181	0x3f53bda5	0.8271125
182	0x3ef816ea	0.48454982
183	0xbf4dca61	-0.8038693
184	0x3f0b7c90	0.5448694
185	0xbd632ff6	-0.05546566
186	0xbf01593f	-0.50526804
187	0xbeded439	-0.43521288
188	0x3debbda1	0.11510778
189	0xbe3fa716	-0.18716082
190	0xbe3c977b	-0.1841716
191	0xbcf20d0a	-0.029547233
192	0x3d8555e9	0.06510527
193	0x3d8ab1e0	0.06772208
194	0x3d4b8abc	0.049692854
195	0x3d838e4a	0.06423624
196	0x3dc26a6a	0.09492953
197	0x3e150841	0.1455393
198	0x3de897c8	0.11357075
199	0x3db76bc6	0.08956103
200	0xbcd927a3	-0.026508158
201	0xbd579728	-0.05263439
202	0xbe3e08ef	-0.18558095
203	0xbd8cf19c	-0.06882021
204	0xbf059e56	-0.52194726
205	0x3f257fb3	0.6464798
206	0x3d09b98f	0.033624228
207	0xbf2b31f2	-0.66873085
208	0x3d232d0d	0.039837886
209	0x3f34d387	0.70635265
210	0x3fa93152	1.3218176
211	0x3e955e37	0.29173443
212	0x3f3440b6	0.7041124
213	0x3c19a401	0.0093774805
214	0xbe87327f	-0.26405713
215	0xbe9e01d2	-0.30860764
216	0x3de201f7	0.11035531
217	0xbe46dbdf	-0.19419812
218	0xbe82eb26	-0.2557003
219	0xbce6927f	-0.028146027
220	0x3c9527be	0.018207427
221	0xbc0311c2	-0.007999839
222	0x3db7931c	0.08963606
223	0x3d8f671d	0.07002089
224	0x3dc01c67	0.09380417
225	0x3d996dbe	0.07491635
226	0x3d4263f7	0.047458615
227	0x3d869c83	0.06572821
228	0x3d841baa	0.06450589
229	0xbdc2fdce	-0.09521066
230	0xbe25675b	-0.16152708
231	0xbd13e379	-0.036105607
232	0xbe9938d9	-0.29926184
233	0x3ee6096e	0.4492907
234	0x3f0b8868	0.54505014
235	0xbf4c8363	-0.7988798
236	0xbccbaa35	-0.024861434
237	0x3f88d061	1.0688592
238	0x3f8ace0e	1.0844133
239	0xbef2c855	-0.47418466
240	0xbed75c4a	-0.42062598
241	0xbbcb5d3b	-0.0062061823
242	0xbf0f573d	-0.5599249
243	0xbe9c2e5e	-0.30504125
244	0xbdab661e	-0.08369087
245	0xbec2a4ca	-0.3801635
246	0xbe527352	-0.20551804
247	0xbdb7cc0d	-0.089744665
248	0xbda17796	-0.07884137
249	0xbc954dde	-0.018225607
250	0x3d68dcb9	0.056851123
251	0x3ddd5c5b	0.10808631
252	0x3df9405b	0.12170478
253	0x3ddbed97	0.10738676
254	0x3dc48e72	0.09597482
255	0x3d4d69b7	0.050149646

fc1.bias f4 [256]
0	0xbd96d71f	-0.0736525
1	0xbe0ca5a5	-0.13735063
2	0xbe9ba0da	-0.30396158
3	0xbe07a315	-0.13245805
4	0xbe2b44c5	-0.16725452
5	0xbe0d6b26	-0.13810405
6	0xbe480d70	-0.19536376
7	0xbef543ac	-0.47903192
8	0xbe9aade2	-0.30210787
9	0xbeaca15c	-0.33716857
10	0xbd845940	-0.064623356
11	0x3d5424f4	0.051793054
12	0xbeaf04a0	-0.34183216
13	0xbe7c3d7e	-0.24632832
14	0x3db44151	0.088015206
15	0xbe8f4557	-0.2798259
16	0xbe54f98f	-0.20798324
17	0x3d938d48	0.07204682
18	0xbe8fd51d	-0.2809228
19	0xbe50a956	-0.20377097
20	0xbe7196f0	-0.23592734
21	0xbdf7cdc1	-0.12099791
22	0xbcedc2f3	-0.029023623
23	0xbe6550e0	-0.22394133
24	0xbdd200c6	-0.10254054
25	0xbd9fd2c3	-0.078038715
26	0xbde98742	-0.114027515
27	0xbec79df0	-0.38987684
28	0xbe830526	-0.25589865
29	0xbeaaa6b3	-0.33330306
30	0xbe172a1b	-0.14762156
31	0xbdb82e3c	-0.089931935
32	0x3ecfd278	0.40590262
33	0xbea43a77	-0.32075855
34	0x3e89e8f2	0.26935536
35	0xbd6b777b	-0.057486992
36	0xbd510978	-0.05103442
37	0x3ea48e12	0.3213964
38	0xbdd72073	-0.10504236
39	0xbca07407	-0.019586576
40	0xbe3134ba	-0.1730527
41	0xbdd0936a	-0.10184367
42	0xbdcc4a91	-0.0997516
43	0x3d8886f2	0.06666364
44	0xbe6c1eae	-0.23058578
45	0xbea3d786	-0.3200037
46	0xbe33a530	-0.17543483
47	0xbe232be5	-0.15934713
48	0xbe60fa34	-0.21970445
49	0xbe9eccf9	-0.31015757
50	0xbe6b02c9	-0.22950281
51	0xbe08e44a	-0.13368335
52	0xbdee6dff	-0.11642074
53	0xbe7250c7	-0.23663627
54	0xbd631be0	-0.055446506
55	0xbeeecc84	-0.46640408
56	0xbe7caec5	-0.24676044
57	0xbe4a7969	-0.19772877
58	0xbe3d7f3e	-0.1850557
59	0xbe3bfc2f	-0.18357919
60	0xbede3a85	-0.43404022
61	0xbdd16bca	-0.10225637
62	0xbe0604c3	-0.13087754
63	0xbcf7b809	-0.030239122
64	0xbda7c3e6	-0.081916615
65	0xbe67384e	-0.22580072
66	0xbdaed7d9	-0.085372634
67	0xbe5c9564	-0.21541363
68	0xbdea95c2	-0.11454345
69	0xbeaffa20	-0.34370518
70	0xbc5a9a58	-0.0133424625
71	0x3d3b9a3d	0.04580139
72	0xbcc597e9	-0.024120288
73	0xbe17e8cb	-0.14834897
74	0xbe18440e	-0.14869711
75	0xbc97029a	-0.018433858
76	0xbeb85115	-0.3599936
77	0xbe91e9db	-0.2849873
78	0xbe504995	-0.2034057
79	0xbdffeb87	-0.12496095
80	0xbd4e84eb	-0.05041973
81	0xbe6f2819	-0.2335514
82	0xbe8038b0	-0.2504325
83	0xbe86c037	-0.26318523
84	0xbeaae7c5	-0.3337995
85	0xbed8c371	-0.4233661
86	0xbcd8fe21	-0.026488366
87	0xbeaf93a6	-0.34292334
88	0xbe2a226c	-0.16614693
89	0xbdb7782e	-0.08958469
90	0xbe5e48d3	-0.21707468
91	0xbe8b2fd7	-0.27184936
92	0xbee3de49	-0.44505528
93	0xbe809f95	-0.2512175
94	0xbe6e1347	-0.23249541
95	0xbd6cbde9	-0.0577983
96	0xbecde129	-0.40210846
97	0xbda59e40	-0.080868244
98	0xbe97b3fb	-0.29629502
99	0xbee938ef	-0.4555125
100	0xbcab7f87	-0.020934833
101	0xbe6acb1b	-0.22929041
102	0xbdb9a329	-0.090643235
103	0xbe4a7c11	-0.1977389
104	0xbedf7cdf	-0.43649957
105	0xbe8dd7d1	-0.27703717
106	0xbeae90de	-0.340949
107	0xbe11a995	-0.14224847
108	0xbe342ab2	-0.17594412
109	0xbe62a6eb	-0.22133987
110	0xbd4c5f08	-0.049895316
111	0xbdd46eb9	-0.10372681
112	0xbef2fcdb	-0.47458538
113	0xbd69e57c	-0.05710362
114	0xbe7b9dc9	-0.24571909
115	0xbd868edf	-0.06570219
116	0xbd5633e6	-0.052295588
117	0xbe083d68	-0.13304675
118	0xbe4968c2	-0.19668868
119	0xbdc5a268	-0.09650117
120	0xbdc57ca7	-0.09642916
121	0xbe93a4d2	-0.28836685
122	0xbd365dd1	-0.044523064
123	0xbe53d3f4	-0.20686322
124	0xbe45fb4c	-0.19334143
125	0xbd814fb4	-0.0631403
126	0xbe1af381	-0.15131952
127	0x3dc11cd6	0.09429328
128	0xbe9a765e	-0.30168432
129	0xbe431162	-0.190496
130	0xbeac7c2a	-0.3368848
131	0xbe97e9a0	-0.2967043
132	0xbe833a31	-0.25630334
133	0xbd33f4ef	-0.04393476
134	0xbe803ff9	-0.25048807
135	0xbe0cc62e	-0.13747475
136	0x3e1760de	0.14783046
137	0xbe7027d1	-0.23452689
138	0xbe5a0dde	-0.21294352
139	0xbd6cc88a	-0.057808436
140	0xbdd48b13	-0.10378089
141	0xbdbb2e0e	-0.091396436
142	0xbe3a11d6	-0.18170866
143	0xbe4cf613	-0.20015745
144	0xbe4be8db	-0.19913046
145	0xbe7e6a36	-0.24845204
146	0xbdfb9853	-0.12284913
147	0xbe8ed8be	-0.27899736
148	0xbd63d3e1	-0.055621985
149	0xbdc45ed6	-0.09588401
150	0xbe4fed31	-0.20305325
151	0xbe73c46b	-0.23805396
152	0xbde51b4c	-0.11186847
153	0xbe1b3c97	-0.15159832
154	0x3cfdf73a	0.031001676
155	0xbd8961af	-0.06708085
156	0xbea8b8ac	-0.32953393
157	0x3ac766a3	0.0015213083
158	0xbea63e9e	-0.32469648
159	0xbea3c422	-0.31985575
160	0xbd612bec	-0.054973528
161	0xbdf11524	-0.117716104
162	0x3b899458	0.004198592
163	0xbea94879	-0.33063105
164	0xbe1f043e	-0.15528962
165	0xbca9023d	-0.02063095
166	0xbcd887d5	-0.026431957
167	0xbe371f73	-0.1788309
168	0xbdb34f8d	-0.087554075
169	0xbe0fc8e4	-0.14041477
170	0xbe4578d6	-0.19284377
171	0xbdd00cc6	-0.10158686
172	0xbed9ca7f	-0.42537305
173	0xbdcce132	-0.1000389
174	0xbd79fcdf	-0.061032172
175	0xbe11df40	-0.1424532
176	0xbdc1c2d3	-0.09460988
177	0xbd402e35	-0.046919066
178	0xbdea04a3	-0.11426666
179	0xbd028a20	-0.031870008
180	0xbe1e4b5c	-0.15458435
181	0xbe41c45c	-0.18922561
182	0xbda92a0c	-0.08259973
183	0xbea01c66	-0.31271666
184	0xbe6c040a	-0.23048416
185	0xbe551418	-0.20808446
186	0xbed231f1	-0.41053727
187	0xbe79e573	-0.24403934
188	0xbc7b7ce2	-0.015349599
189	0xbd9a4f35	-0.07534639
190	0xbe87f888	-0.26556802
191	0xbe8c7244	-0.27430928
192	0xbe673eef	-0.22582601
193	0xbee2711e	-0.44226927
194	0x3d47ac9f	0.04874861
195	0xbe520850	-0.20510983
196	0xbe72196c	-0.2364251
197	0xbe07b5a1	-0.1325288
198	0xbcfd4633	-0.030917263
199	0xbe6b96ef	-0.23006795
200	0x3e883373	0.26601753
201	0xbce30e93	-0.02771691
202	0xbc09bda9	-0.008407035
203	0xbe09e2a6	-0.13465366
204	0xbe3a621d	-0.1820149
205	0xbecf0120	-0.40430546
206	0xbcbff977	-0.023434384
207	0xbe02f491	-0.12788607
208	0xbeae4e25	-0.34043995
209	0xbec80807	-0.39068624
210	0xbea676f7	-0.32512638
211	0xbe7344d3	-0.23756723
212	0xbe9b77b8	-0.30364776
213	0xbe88529b	-0.26625523
214	0xbe88ddc0	-0.26731682
215	0xbecf5336	-0.40493172
216	0xbec3ab28	-0.3821652
217	0xbc9ca2e1	-0.019120635
218	0xbe38f55a	-0.18062344
219	0xbe00c926	-0.12576732
220	0xbe0bfa97	-0.13669811
221	0xbec0ea90	-0.37678957
222	0xbdaa3d10	-0.08312428
223	0xbe43ce08	-0.19121563
224	0xbea2355e	-0.3168134
225	0xbee0bea4	-0.43895447
226	0xbd538a26	-0.05164542
227	0xbe06163e	-0.13094422
228	0xbe807a45	-0.25093284
229	0xbed3148f	-0.41226622
230	0xbc6d334a	-0.01447756
231	0xbeeada17	-0.45869514
232	0xbe44ecc3	-0.19230942
233	0xbe952afe	-0.29134363
234	0xbde0089a	-0.109391406
235	0xbe82f79b	-0.25579533
236	0x3dee2b06	0.116293
237	0xbe4c3987	-0.1994382
238	0xbd359846	-0.044334672
239	0xbe345e20	-0.17614031
240	0xbe075098	-0.13214338
241	0xbe801ff8	-0.2502439
242	0xbd881402	-0.06644441
243	0xbd5cbee6	-0.053892992
244	0xbe3dbb61	-0.1852851
245	0xbe3cdd82	-0.18443874
246	0xbced5b9a	-0.028974343
247	0xbec14887	-0.37750646
248	0xbe52f57e	-0.2060146
249	0xbd07155e	-0.03297936
250	0xbe01b6ab	-0.12667339
251	0xbe48ffe2	-0.19628862
252	0xbe80c62b	-0.2515119
253	0xbe2e9faf	-0.17053102
254	0xbd72e128	-0.059296757
255	0xbe15547e	-0.14583012

fc2.weight f4 [128, 256]
0	0xbdc9607f	-0.09832858
1	0xbc8ae203	-0.016953474
2	0xbebe7713	-0.3720022
3	0xbf1f8e51	-0.6232653
4	0xbf248309	-0.64262444
5	0x3e7df126	0.24799022
6	0x3df0ae5a	0.11752005
7	0x3f1bf90d	0.60926896
8	0x3e658c8d	0.22416897
9	0xbe46bade	-0.19407222
10	0xbcabf08e	-0.020988729
11	0xbde36936	-0.11104052
12	0x3d747ff7	0.05969235
13	0x3e5d5a51	0.21616484
14	0xbf257074	-0.64624715
15	0x3f41a319	0.7563949
16	0xbd22d6a3	-0.039755475
17	0xbe73a33c	-0.23792738
18	0xbea06dfb	-0.31333908
19	0xbdf8a4fa	-0.12140842
20	0xbe27373e	-0.16329667
21	0xbdaf03ff	-0.08545684
22	0xbba445a2	-0.0050131837
23	0xbecb7b2b	-0.39742407
24	0x3a9e86ac	0.0012094579
25	0xbcb290f5	-0.021797637
26	0x3cdc650a	0.026903648
27	0x3e8881ec	0.26661623
28	0x3d30bdb3	0.04314966
29	0x3f069a53	0.5257923
30	0x3d8b4ec2	0.06802131
31	0xbd9d6ac8	-0.076863825
32	0x3e914fca	0.28381187
33	0x3e67998b	0.22617166
34	0xbdb39e4b	-0.08770426
35	0x3d51a46f	0.051182207
36	0xbec2638e	-0.3796658
37	0xbe562296	-0.20911631
38	0xbf1d2ad0	-0.6139345
39	0x3a3cd6b5	0.00072036247
40	0x3de7f827	0.11326628
41	0x3da640e9	0.081178494
42	0xbc8b5265	-0.017007062
43	0xbe133f66	-0.14379653
44	0xbf0a1d8f	-0.5395135
45	0x3d30878f	0.04309803
46	0x3da2c3c6	0.07947497
47	0x3d75f5e5	0.060048956
48	0xbe60ff01	-0.21972276
49	0x3d5f3710	0.05449587
50	0x3ca77c0a	0.020444889
51	0xbf1b6dfd	-0.60714704
52	0xbc605bbb	-0.013693745
53	0xbe15438c	-0.14576548
54	0x3ca10ae5	0.019658515
55	0x3f05ba65	0.5223754
56	0xbd3b8eb2	-0.04579038
57	0xbe4d6249	-0.20057024
58	0xbde7717a	-0.11300941
59	0xbcc1c81e	-0.023654994
60	0x3e9fa28c	0.311787
61	0xbd2a7934	-0.041619495
62	0x3db6ceb9	0.08926148
63	0xbcaa6c46	-0.020803582
64	0xbd9c406d	-0.07629476
65	0xbefe9c71	-0.4972873
66	0xbf038e86	-0.5138935
67	0x3e0e8bb1	0.13920476
68	0x3e2ba85c	0.16763443
69	0x3e3567b9	0.17715348
70	0xbd6b2bc9	-0.057414804
71	0x3e39b814	0.18136626
72	0xbd14346f	-0.036182817
73	0xbce4d290	-0.027932435
74	0x3d71a017	0.058990564
75	0xbb7e33f3	-0.0038788288
76	0x3f0a8a34	0.5411713
77	0x3e168135	0.14697726
78	0xbf004719	-0.50108486
79	0xbde4b57d	-0.11167429
80	0xbd16ef4b	-0.0368493
81	0xbe7f8413	-0.24952726
82	0xbecca3ed	-0.39968815
83	0x3e443928	0.19162428
84	0xbde663a2	-0.11249472
85	0xbd7952c7	-0.06086996
86	0xbe93d859	-0.28875998
87	0x3d7a43c3	0.06109978
88	0xbc8f3a5b	-0.01748388
89	0xbf424bda	-0.7589699
90	0x3d726621	0.05917943
91	0x3dd4de17	0.10393923
92	0x3d9d2c18	0.07674426
93	0xbdcbb1be	-0.09946011
94	0x3f1be1f1	0.60891634
95	0x3c50db9e	0.012747673
96	0xbdb23b2c	-0.087026924
97	0xbe8c770c	-0.27434576
98	0xbec930fc	-0.39295185
99	0xbbfcbf97	-0.007713269
100	0x3e3b30a0	0.18280268
101	0xbde44ef8	-0.111478746
102	0xbd87e35d	-0.06635163
103	0xbea934dc	-0.3304814
104	0x3f1c48e1	0.61048704
105	0x3ed5f5a7	0.4178898
106	0xbebdf8b2	-0.37103802
107	0x3d25afdb	0.040450912
108	0xbbbf30e7	-0.005834687
109	0x3e168c12	0.1470187
110	0x3d262a53	0.040567707
111	0x3de677e8	0.11253339
112	0xbcbdb6b0	-0.023158401
113	0xbe435d41	-0.19078542
114	0x3d9f3f3e	0.07775734
115	0xbeb8341e	-0.35977262
116	0xbd3bdfeb	-0.04586784
117	0x3bad7900	0.0052939653
118	0xbc038814	-0.008028049
119	0x3d2668d9	0.040627334
120	0x3cc2bb6f	0.023771016
121	0x3e3371c9	0.17523874
122	0xbe92b9f4	-0.28657496
123	0x3dbafb35	0.09129945
124	0xbee6fd5b	-0.4511517
125	0x3c6e6b1e	0.014551906
126	0x3d4a9ad7	0.049464073
127	0xbef94aad	-0.48689786
128	0x3edf7970	0.43647337
129	0xbd665c4e	-0.056240372
130	0x3de925f6	0.113841936
131	0x3d8f3b9e	0.06993793
132	0x3d05f62a	0.032705463
133	0x3d0db0f5	0.034592588
134	0xbf3824a6	-0.7193092
135	0xbe035427	-0.1282507
136	0xbeeca759	-0.46221426
137	0xbe854a25	-0.2603313
138	0xbf0ec76a	-0.5577303
139	0x3b5d930c	0.003380957
140	0x3d76513c	0.060136065
141	0xbae3b9a1	-0.0017374047
142	0xbe927cee	-0.2861094
143	0xbd9a669f	-0.07539105
144	0xbd8b53a4	-0.068030626
145	0x3d794f22	0.060866483
146	0xbe07ec70	-0.13273787
147	0xbe2fce38	-0.1716851
148	0x3dd21cb3	0.1025938
149	0xbc72f3bb	-0.014828618
150	0xbec2c9be	-0.38044542
151	0x3ee8e9f8	0.45491004
152	0x3d12e601	0.03586388
153	0xbecf5d51	-0.40500882
154	0xbe0b1500	-0.1358223
155	0xbdd63281	-0.104588516
156	0x3e2f76fe	0.17135236
157	0x3d4f07ba	0.050544478
158	0xbde1f9d6	-0.110339805
159	0xbd8a380f	-0.067489736
160	0xbc40abae	-0.011759682
161	0xbee70d43	-0.45127305
162	0xbeb10418	-0.34573436
163	0xbce07542	-0.027399663
164	0x3e30c12a	0.17261186
165	0xbcb556c9	-0.022136109
166	0xbb0442ec	-0.002018149
167	0xbc81e71d	-0.015857274
168	0x3e5a26d2	0.21303871
169	0xbdb5a03e	-0.088684544
170	0xbee10381	-0.43947986
171	0xbd8f33dd	-0.06992314
172	0x3f224b5b	0.63396233
173	0x3e38c847	0.1804515
174	0xbd2b45b3	-0.041814517
175	0xbb127e6c	-0.0022353185
176	0xbeb8802e	-0.36035293
177	0xbcac3697	-0.021022124
178	0xbc835da9	-0.016035872
179	0x3e8fc4aa	0.2807973
180	0x3d9217ff	0.07133483
181	0xbd71c4e1	-0.05902565
182	0xbd3e4fac	-0.0464627
183	0x3bc6a3d9	0.0060620126
184	0xbed01e3a	-0.4064806
185	0xbb7bbe5e	-0.0038413028
186	0x3f3ec6aa	0.7452189
187	0xbe8b17a6	-0.2716648
188	0x3d409398	0.047015756
189	0x3c526d51	0.012843446
190	0xbc9205e1	-0.017825069
191	0x3d835a01	0.06413651
192	0x3d7036a7	0.05864587
193	0x3d4db5a4	0.050222054
194	0x3eb00dd2	0.34385544
195	0x3e04d293	0.12970953
196	0x3d79320c	0.060838744
197	0xbd5dcc99	-0.054150198
198	0x3d9879af	0.07445084
199	0xbdc388cb	-0.095475756
200	0x3e92a18a	0.2863887
201	0xbec0ef7e	-0.37682718
202	0xbd921d86	-0.071345374
203	0xbd7cf7a3	-0.061759602
204	0xbd7d3f55	-0.061827976
205	0xbde11aa8	-0.109914124
206	0x3d49fc95	0.049313147
207	0xbee50e4f	-0.4473748
208	0x3ef375bb	0.4755076
209	0x3d59ad92	0.053144045
210	0xbe118fe3	-0.14215045
211	0xbe804bf0	-0.25057936
212	0xbe50e6d6	-0.20400557
213	0x3c44538f	0.011982813
214	0xbbf1d6e9	-0.0073803556
215	0xbe8217ea	-0.2540887
216	0xbaed3ff5	-0.0018100726
217	0x3cc72d40	0.02431357
218	0xbcfc664a	-0.030810494
219	0x3c9cb9f6	0.019131642
220	0x3cc74975	0.02432702
221	0xbd4ffb3a	-0.050776698
222	0xbc8353bb	-0.016031137
223	0xbdc6c7ed	-0.097061016
224	0xbe0293ea	-0.12751737
225	0x3f0c1e9f	0.54734224
226	0x3d9e72ad	0.077367164
227	0x3d64d2e1	0.055865172
228	0xbddf73c2	-0.10910751
229	0xbecfd9ed	-0.40595952
230	0xbc2b6a2c	-0.010462325
231	0xbebf2b92	-0.3733793
232	0x3e065175	0.13117011
233	0xbe3ca7f9	-0.18423451
234	0x3dc0809d	0.09399531
235	0x3cad3d9e	0.021147545
236	0xbe49e59f	-0.197165
237	0x3e7176f6	0.23580536
238	0xbc9792b6	-0.018502574
239	0xbf0b22e3	-0.5435011
240	0xbe1fedc0	-0.15618038
241	0xbe98dd72	-0.2985645
242	0xbda2a4f1	-0.07941616
243	0xbef1beb0	-0.47215796
244	0x3d69f7b2	0.057120986
245	0x3db1b72e	0.08677517
246	0xbd389511	-0.045064036
247	0xbeddd215	-0.43324342
248	0x3e1d8fec	0.15386933
249	0xbd10b1a4	-0.03532566
250	0xbde0eee2	-0.10983063
251	0xbc3c7cad	-0.011504334
252	0xbd9c9671	-0.07645882
253	0xbcceae8f	-0.02522972
254	0xbed2ffda	-0.41210824
255	0x3cb90585	0.02258564

fc2.bias f4 [128]
0	0xbfa97502	-1.3238833
1	0xbf51164e	-0.8167466
2	0x3fa5b03f	1.2944411
3	0x3e3b5a3b	0.18296139
4	0xbe591f86	-0.21203431
5	0x3eddf4c2	0.43350798
6	0x3ff7ecb9	1.9369117
7	0xbfa6b1c6	-1.3023002
8	0x3e296a19	0.1654438
9	0xbea376e3	-0.3192664
10	0xbf67d475	-0.9055856
11	0xc0077a42	-2.116837
12	0xbe32a840	-0.17446995
13	0xbdd70810	-0.10499585
14	0x3ea0ef13	0.314324
15	0xbd4883fe	-0.048954003
16	0xbfeba8b2	-1.8410857
17	0x3f61382a	0.87976325
18	0xbfc5ffb4	-1.5468659
19	0x3e399b8b	0.18125741
20	0xbf651376	-0.8948282
21	0x3f6bc380	0.92095184
22	0xbfb730fc	-1.4311824
23	0xbe52945c	-0.20564407
24	0x4000fbc4	2.0153666
25	0xbdbb74ba	-0.09153123
26	0xbda718f3	-0.081590556
27	0x3f48b0c1	0.78394705
28	0xbfa1f037	-1.2651433
29	0x3f0c105b	0.54712456
30	0xbfcf6b43	-1.6204609
31	0xbf170b18	-0.590013
32	0xbfd51b4c	-1.6648955
33	0xbf6f4ac2	-0.93473446
34	0xbf430af8	-0.7618861
35	0x3ea22621	0.31669715
36	0xbe3e3749	-0.18575777
37	0x3f0bbd24	0.5458548
38	0x3f01c691	0.50693613
39	0x3b656e57	0.0035008395
40	0xbf832ff3	-1.0249008
41	0xbe562ed8	-0.20916307
42	0xbf80c72a	-1.006078
43	0x3f93b56b	1.1539739
44	0xbd1c8a75	-0.03821798
45	0xbf93b77d	-1.1540371
46	0xbd8a5600	-0.067546844
47	0xbd41d4ba	-0.047322012
48	0xbf950fb5	-1.1645418
49	0xbf030e2c	-0.511935
50	0xbf56f41b	-0.83966225
51	0xbed0029a	-0.40626985
52	0xbf20f3e3	-0.6287214
53	0xbe38ce45	-0.18047436
54	0xbf985a1d	-1.19025
55	0xbf46acd3	-0.7760746
56	0x3f02c2d2	0.5107852
57	0xbfa5ef63	-1.296368
58	0x3f99d157	1.201701
59	0x3f673633	0.90317076
60	0xc005ef7a	-2.0927415
61	0xbf5eb350	-0.8699236
62	0xbf291a04	-0.6605532
63	0xbebe28b2	-0.37140423
64	0xbf45babe	-0.7723807
65	0xbfb2d2b6	-1.3970554
66	0x3f13524b	0.57547444
67	0xbea7f8f1	-0.32807115
68	0x3eb11e25	0.3459331
69	0xbf6782ec	-0.90434146
70	0xbf003bac	-0.5009105
71	0xbe906f74	-0.28210032
72	0xbf7e9151	-0.99440485
73	0xbf4c7cde	-0.7987803
74	0xbf242f65	-0.6413482
75	0xbf15edfa	-0.5856625
76	0xbefd04d2	-0.4941774
77	0xbf5b0c6a	-0.8556582
78	0x3f010236	0.50394
79	0xbe60ebdb	-0.21964972
80	0xbff00400	-1.8751221
81	0xbe639144	-0.22223383
82	0x3f1535dc	0.5828531
83	0xbf6ac864	-0.9171202
84	0x3eb88819	0.36041334
85	0xbfd73d00	-1.6815491
86	0xbfc027c7	-1.5012139
87	0x3d52cf92	0.051467486
88	0x3f1d5454	0.614568
89	0xbe4d7828	-0.20065367
90	0xbfc34b34	-1.5257325
91	0x3d92aac6	0.07161479
92	0x3e50e3c4	0.20399386
93	0x3e355712	0.17708996
94	0xbdc8cf41	-0.098051555
95	0x3f22762a	0.63461554
96	0x3f433aaf	0.7626142
97	0xbeebb9a0	-0.46040058
98	0xbf0dd4a6	-0.554026
99	0xbf101c52	-0.56293213
100	0xbe0ab1fe	-0.13544461
101	0xbf98e00d	-1.1943375
102	0xbfaffb96	-1.3748653
103	0xbf619bdf	-0.88128465
104	0x3f4535de	0.7703532
105	0x3e8f3463	0.27969655
106	0x3f88857e	1.0665739
107	0xbf9083a5	-1.1290175
108	0x3eb91f55	0.36156717
109	0xbebb9bbe	-0.3664226
110	0x3e88d029	0.26721314
111	0xbe3d13da	-0.18464604
112	0xbfb67160	-1.4253349
113	0x3ff79b7a	1.9344323
114	0x3f3cce0e	0.73751915
115	0x3d4152c2	0.047198065
116	0xbf0d3e1a	-0.55172884
117	0x3d981c80	0.07427311
118	0xbf962986	-1.1731422
119	0x3e8be076	0.27319688
120	0xbfb7d901	-1.4363099
121	0xbf4d85df	-0.80282396
122	0xbfc8974c	-1.5671172
123	0x3f096bed	0.53680307
124	0x3f034488	0.51276445
125	0x3e85467f	0.26030347
126	0xbeb1216d	-0.34595814
127	0x3eb24239	0.3481615

fc3.weight f4 [64, 128]
0	0xbe4e842c	-0.20167607
1	0x3db5c671	0.0887574
2	0xbf28b151	-0.65895563
3	0x3d9bb9b8	0.076037824
4	0xbf12ae6c	-0.57297397
5	0xbee826c5	-0.4534208
6	0xbd4d9783	-0.05019332
7	0x3db6fc58	0.089348495
8	0xbf0fe950	-0.5621538
9	0xbe819191	-0.2530637
10	0x3e816996	0.25275868
11	0xbe8fc4b0	-0.28079748
12	0x3d8e636d	0.06952558
13	0xbf001a74	-0.50040364
14	0xbe74f2fa	-0.23920813
15	0xbeb80524	-0.35941422
16	0xbe316e98	-0.17327344
17	0xbea6f11f	-0.32605836
18	0x3e4cb1a4	0.1998964
19	0x3d9faf22	0.07797076
20	0x3e825581	0.2545586
21	0xbcbe01e6	-0.023194265
22	0xbdb3e8c9	-0.087846346
23	0xbf0ecaf9	-0.5577846
24	0x3e194e98	0.14971387
25	0xbf0af417	-0.542787
26	0xbe2104a7	-0.15724431
27	0x3d3eadfb	0.04655264
28	0x3ee4d5a5	0.44694248
29	0x3d2187e5	0.03943624
30	0x3e9ce5d7	0.30644104
31	0xbe544b6a	-0.20731893
32	0xbe0fad91	-0.14031054
33	0xbb14408a	-0.0022621476
34	0xbf4b0e1e	-0.79318416
35	0xbceb90ce	-0.028755572
36	0xbebd75be	-0.37003893
37	0xbe1ebb85	-0.1550122
38	0xbd0f78f6	-0.035027467
39	0xbd4748ee	-0.048653536
40	0x3d365bb8	0.044521064
41	0xbd602900	-0.0547266
42	0xbde68493	-0.11255755
43	0xbe188f9d	-0.14898534
44	0xbe351115	-0.17682298
45	0x3daa30df	0.08310103
46	0xbf5913ea	-0.8479601
47	0xbf21c730	-0.6319456
48	0xbeac8146	-0.33692378
49	0xbea9db3d	-0.33175078
50	0x3e843f0f	0.2582936
51	0xbe71f5d3	-0.23628931
52	0xbe57fdeb	-0.21092956
53	0xbe16a076	-0.14709648
54	0x3ad4bd2d	0.0016230695
55	0x3ed06781	0.40703967
56	0xbe4126b4	-0.1886242
57	0x3e861610	0.26188707
58	0x3e0470e2	0.12933686
59	0xbef8f738	-0.48626113
60	0xbeaca004	-0.33715832
61	0x3edb8f02	0.42882544
62	0xbd13a5a4	-0.03604664
63	0xbebdd89b	-0.3707932
64	0xbddfcb24	-0.10927418
65	0xbe1ba016	-0.15197787
66	0x3c5abd57	0.013350806
67	0xbdb8a02f	-0.090149276
68	0xbd2e8623	-0.04260839
69	0xbc43fbff	-0.011961936
70	0xbe09510f	-0.13409828
71	0xbec7a2d5	-0.38991418
72	0xbda22fd3	-0.07919278
73	0xbb002fd2	-0.0019559753
74	0xbcb3f23e	-0.021966096
75	0xbe947a0e	-0.2899937
76	0xbd9c4591	-0.07630456
77	0xbf8715e6	-1.0553558
78	0xbefa6c40	-0.48910713
79	0xbe21a0b4	-0.1578396
80	0xbdae6b79	-0.085165925
81	0xbdaf01fb	-0.085452996
82	0xbeee223b	-0.4651049
83	0x3ed2cc61	0.41171554
84	0xbe9884fb	-0.29788956
85	0x3c746fc3	0.014919224
86	0xbd305e29	-0.043058548
87	0xbf53a0c0	-0.8266716
88	0xbe4d27db	-0.20034735
89	0x3d47ec51	0.048809353
90	0x3e4ab195	0.19794305
91	0xbea4bfb8	-0.3217752
92	0xbd8b6d39	-0.06807942
93	0xbf03b1c1	-0.51443106
94	0x3ce035ef	0.027369468
95	0x3d21f943	0.039544355
96	0x3d6c50d8	0.057694286
97	0xbd11acbc	-0.035565123
98	0xbd9c36f7	-0.07627671
99	0xbc9777d1	-0.01848975
100	0x3db98694	0.09058872
101	0xbe821e0a	-0.25413543
102	0x3e8eb16d	0.2786974
103	0xbe984c26	-0.29745597
104	0xbf3da35e	-0.74077404
105	0xbf330188	-0.6992421
106	0x3e8238d5	0.25433984
107	0xbebcd43e	-0.36880678
108	0xbdb594d0	-0.08866274
109	0xbf3ea6df	-0.74473375
110	0xbedf6c99	-0.4363754
111	0xbe29dc71	-0.16587998
112	0x3d0777d6	0.03307327
113	0x3d507158	0.050889343
114	0xbe1054d6	-0.14094862
115	0xbf1ef410	-0.6209116
116	0xbeccb3ab	-0.39980826
117	0xbebb4e47	-0.36583158
118	0xbd76a342	-0.06021429
119	0x3e082743	0.13296227
120	0x3df54620	0.11976266
121	0xbcf0a9ae	-0.029377785
122	0x3e893b9d	0.26803294
123	0x3da3f5c5	0.08005861
124	0x3e523b23	0.20530371
125	0xbeda1561	-0.42594436
126	0xbedca6a1	-0.43095878
127	0x3e99ee0d	0.3006443
128	0xbe440ce5	-0.19145544
129	0xbd881e7a	-0.06646438
130	0x3e97e1af	0.2966437
131	0xbefae967	-0.49006197
132	0xbe0928fc	-0.1339454
133	0xbe96ede3	-0.29478368
134	0x3d10955d	0.035298694
135	0x3e120124	0.14258248
136	0xbf213e32	-0.6298553
137	0xbe63aa5f	-0.2223296
138	0xbed986fd	-0.424858
139	0x3ec967e5	0.39337078
140	0xbd2ca1d1	-0.042146508
141	0x3dc0d9f9	0.09416575
142	0xbe0098a5	-0.1255823
143	0xbe958db8	-0.29209685
144	0xbc087f37	-0.008331112
145	0xbc4b02f4	-0.012390841
146	0xbebfaac2	-0.37434965
147	0x3e6d9312	0.23200634
148	0xbd84c3f3	-0.06482687
149	0xbe857108	-0.26062799
150	0xbe2d631b	-0.16932337
151	0xbe858968	-0.26081395
152	0xbe6b4d08	-0.22978604
153	0xbd84c5f6	-0.064830706
154	0xbebf2128	-0.37329984
155	0xbd73d339	-0.05952761
156	0x3e4e1543	0.20125298
157	0x3d69ff26	0.057128094
158	0x3e799825	0.24374445
159	0xbf09682e	-0.5367459
160	0xbda496ee	-0.080366
161	0xbdcd1e0c	-0.100154966
162	0xbdceae84	-0.1009188
163	0x3e132de3	0.14372973
164	0x3c3bb3d3	0.011456448
165	0x3d8d5f48	0.06902939
166	0x3db99f7a	0.09063621
167	0x3dd497dd	0.10380528
168	0xbd67932d	-0.056536842
169	0x3dfa7d97	0.122309856
170	0xbd872701	-0.06599236
171	0x3e1bff34	0.15234071
172	0x3e30db9c	0.17271274
173	0xbeb86e56	-0.3602168
174	0xbe16911f	-0.14703797
175	0xbed529a3	-0.4163333
176	0xbf1e3d61	-0.61812407
177	0xbcb6e056	-0.022323769
178	0xbf51441d	-0.8174456
179	0xbd498400	-0.04919815
180	0xbe7869e6	-0.24259147
181	0x3cf10f41	0.029426219
182	0x3e3400aa	0.17578378
183	0xbe08fa88	-0.1337682
184	0xbeba63bd	-0.3640422
185	0x3deadef3	0.114683054
186	0xbdb0b552	-0.08628334
187	0xbe8f9878	-0.28046012
188	0x3d3c46f5	0.045966107
189	0x3d8ccf88	0.06875521
190	0xbeaf3219	-0.3421791
191	0xbcc3fb46	-0.023923527
192	0xbeb47ff1	-0.35253862
193	0x3dc6df96	0.097106144
194	0xbdc439bf	-0.09581327
195	0xbe3f2430	-0.18666148
196	0x3d0e6083	0.03476001
197	0xbe93cf50	-0.28869104
198	0xbf1ed4a5	-0.6204322
199	0x3d27e265	0.04098739
200	0xbeb631c7	-0.35584852
201	0xbee33d61	-0.44382766
202	0xbd92aa62	-0.07161404
203	0xbe0d91fb	-0.13825218
204	0x3beafdbe	0.0071713617
205	0xbd9bb00e	-0.07601939
206	0xbe360374	-0.17774755
207	0xbdeadb08	-0.11467558
208	0x3cca0058	0.024658367
209	0xbde935d6	-0.113872215
210	0x3ca16c6f	0.019705025
211	0xbdcec1f5	-0.10095588
212	0xbf070cce	-0.52753913
213	0x3e189490	0.14900422
214	0xbdd630ea	-0.10458548
215	0xbe6918ff	-0.22763442
216	0xbe7ffabb	-0.2499799
217	0xbec502c6	-0.38478678
218	0xbd9a9967	-0.075487904
219	0xbf2550b4	-0.6457627
220	0xbd4a1625	-0.049337525
221	0x3d4b66e6	0.04965868
222	0xbe9c8732	-0.30571896
223	0xbecef0a9	-0.40417984
224	0x3e240923	0.1601911
225	0xbe4f395e	-0.20236728
226	0xbdac579f	-0.0841515
227	0x3d52145e	0.051288955
228	0x3e8d6ac7	0.27620527
229	0x3d6dd4c6	0.058064245
230	0xbebca895	-0.36847368
231	0xbebbef38	-0.36705947
232	0x3e3ae2fb	0.18250649
233	0xbee332bf	-0.44374654
234	0xbec3e14d	-0.38257828
235	0xbe2a54f8	-0.16633976
236	0xbe36cd0b	-0.17851655
237	0x3db9819a	0.09057923
238	0xbd0e408f	-0.034729537
239	0xbebecbc4	-0.37264836
240	0x3eafa53a	0.34305745
241	0x3e1de20b	0.1541826
242	0xbda07af8	-0.078359544
243	0xbf039904	-0.5140536
244	0x3e3c42b3	0.18384819
245	0x3ce716bf	0.028209088
246	0xbe22baa9	-0.15891518
247	0xbce99b48	-0.028516427
248	0x3e890507	0.26761648
249	0x3e94fe33	0.2910019
250	0xbd01b917	-0.031670656
251	0xbf1dfa1e	-0.61709774
252	0xbee8c91b	-0.4546593
253	0x3d34a043	0.04409815
254	0xbea3ce26	-0.31993216
255	0xbdaaaf04	-0.08334163

fc3.bias f4 [64]
0	0x3f57795e	0.84169567
1	0x3f5074bd	0.8142813
2	0xc0010e69	-2.0165045
3	0x3f7d94a9	0.9905496
4	0x3fcfd4fc	1.6236873
5	0x3f3122e5	0.6919387
6	0x3f969e22	1.1767008
7	0x3f7eb59b	0.9949586
8	0x3fc4c7e4	1.5373502
9	0x3e5e4509	0.21706022
10	0x3f1c7a9f	0.61124605
11	0x3fbcc2da	1.4746964
12	0xbfb452ed	-1.4087807
13	0x3f7c12f7	0.9846644
14	0x3f8070bb	1.0034403
15	0x3f168623	0.58798426
16	0xbfc4f608	-1.5387583
17	0x3f9803cc	1.1876159
18	0x3f92f232	1.1480162
19	0x3f9798f1	1.1843549
20	0x3f7b7af0	0.9823446
21	0x3f5d431e	0.8643054
22	0x3f68b1d9	0.90896374
23	0x3f839fdf	1.0283164
24	0xbf788682	-0.9708024
25	0x3f4ff41f	0.81231874
26	0x3f7572ab	0.95878094
27	0x3fc700dc	1.5547137
28	0x3fcfe3cf	1.6241397
29	0x3f264f54	0.64964795
30	0xbfc53089	-1.5405437
31	0xbff12652	-1.883982
32	0xbd8b16bc	-0.067914456
33	0x3f24a6cb	0.64317006
34	0x3f6a4296	0.9150785
35	0x3f9804e1	1.1876489
36	0x3f351c31	0.7074614
37	0x3f838f7f	1.0278167
38	0x3f737b6f	0.9511022
39	0xbfcbd252	-1.592356
40	0x3fc85cba	1.5653298
41	0xbf2908fe	-0.66029346
42	0x3f6804ec	0.9063251
43	0x3ff9259d	1.9464604
44	0x3f53b3ed	0.8269642
45	0x3f80c070	1.0058727
46	0x3e6808d8	0.22659624
47	0x3f8312e0	1.0240135
48	0x3fae2c3b	1.3607248
49	0x3ee70dfb	0.45127854
50	0xbfbc959e	-1.473316
51	0xbf3f0743	-0.74620456
52	0x3e6527b5	0.22378428
53	0x3f858f28	1.0434313
54	0x3f6481fc	0.8926084
55	0x3f08c171	0.5342017
56	0x3ebb5825	0.36590686
57	0x3f0eaf10	0.55735874
58	0x3f542e56	0.82883203
59	0x3f67c66e	0.90537155
60	0x3f28c41b	0.65924233
61	0xbf237ae0	-0.6385937
62	0x3f52f861	0.82410246
63	0xbfd992ec	-1.6997962

fc4.weight f4 [10, 64]
0	0xbd99ccb9	-0.07509751
1	0xbdfa47a4	-0.122206956
2	0xbed635a4	-0.418378
3	0xbe8e05ab	-0.277387
4	0x3dc33d6e	0.09533201
5	0xbc55305c	-0.013012018
6	0x3cd897de	0.026439603
7	0xbe95a736	-0.29229134
8	0x3e07e38f	0.132704
9	0xbdfbaf8c	-0.12289342
10	0xbe1f422a	-0.15552583
11	0xbdc07d7e	-0.09398936
12	0xbe09f262	-0.13471368
13	0x3dbdac01	0.09261323
14	0x3d09e8af	0.03366917
15	0x3d2c0401	0.041996006
16	0xbd6be794	-0.057593897
17	0xbb80a689	-0.0039261025
18	0xbd31b4f2	-0.043385454
19	0xbe825713	-0.25457057
20	0x3ccc9d7d	0.02497744
21	0xbe2caf53	-0.16863756
22	0x3d3d6ae2	0.04624451
23	0xbeba9484	-0.36441433
24	0xbd3b1622	-0.045675404
25	0xbe3ae278	-0.18250453
26	0x3d062d48	0.032758027
27	0xbcf3b546	-0.029749524
28	0x3ccfda98	0.025372788
29	0x3d86ae2e	0.06576191
30	0xbe473d22	-0.19456914
31	0xbe0ac95e	-0.13553378
32	0xbbc113d8	-0.005892258
33	0x3c639d09	0.013892421
34	0xbe376b07	-0.17911921
35	0x3dc19b5c	0.094534606
36	0xbca18424	-0.01971633
37	0xbd1a225e	-0.03763043
38	0xbf08132d	-0.5315426
39	0xbe59c1a6	-0.21265277
40	0x3d481c70	0.048855245
41	0xbdb3c3ad	-0.087775566
42	0x3d89a0ef	0.06720149
43	0x3ddc9f02	0.10772516
44	0x3cca7b88	0.024717107
45	0x3c772c13	0.015086192
46	0xbe2bc46a	-0.16774145
47	0x3dafa28f	0.085759275
48	0x3d70d573	0.05879731
49	0xbe908cf3	-0.28232536
50	0xbe660f51	-0.2246678
51	0xbc70bf71	-0.014694081
52	0xbe5a1aa1	-0.2129922
53	0xbe52c349	-0.20582308
54	0x3db561f8	0.08856577
55	0xbd4fa4c2	-0.050694235
56	0xbd2be621	-0.041967515
57	0xbd8b8451	-0.06812347
58	0xbe1edc5c	-0.15513748
59	0x3bd1fd73	0.0064083873
60	0xbe3740f2	-0.17895868
61	0xbd57190d	-0.052514125
62	0x3c05278a	0.008127103
63	0xbe5e6f20	-0.21722078
64	0xbdbc86c6	-0.092053935
65	0xbe4781c3	-0.19483094
66	0xbec9a263	-0.39381704
67	0xbc9b988f	-0.018993644
68	0x3d9a1044	0.07522634
69	0xbdf0646a	-0.117379025
70	0xbdb634c3	-0.08896782
71	0xbe03d3da	-0.12873784
72	0x3c8fcf31	0.017554851
73	0x3d5dda41	0.05416322
74	0xbeb6ed06	-0.3572771
75	0xbe689a8e	-0.22715208
76	0xbe2c049c	-0.16798633
77	0xbe9a28f8	-0.30109382
78	0xbe16c08e	-0.14721891
79	0x3dff2f1c	0.12460157
80	0x3c6cdf8d	0.014457596
81	0x3db2c445	0.08728842
82	0x3d71a7ba	0.058997847
83	0xbe918118	-0.28418803
84	0x3da44d66	0.08022575
85	0xbe166791	-0.14687945
86	0x3c8e09d2	0.017338667
87	0xbea0b055	-0.3138453
88	0x3cdb7efe	0.026793953
89	0xbe53ac96	-0.20671305
90	0xbd260814	-0.040535048
91	0xbe1be3ab	-0.15223567
92	0xbe31982a	-0.17343202
93	0xbe8328dd	-0.25617114
94	0xbdf00af5	-0.1172084
95	0xbf0abc78	-0.5419383
96	0xbe73a735	-0.23794253
97	0xbd6a2615	-0.057165224
98	0xbdbdad2d	-0.09261546
99	0x3d0e0f2d	0.03468244
100	0x3e09df2f	0.13464044
101	0x3db14c24	0.08657101
102	0xbf064e83	-0.5246355
103	0xbe1fc725	-0.15603311
104	0xbe1ecf3a	-0.15508738
105	0xbe273555	-0.16328938
106	0xbe598cea	-0.2124516
107	0xbdb17ce0	-0.08666396
108	0x3ce69901	0.02814913
109	0xbd819f0f	-0.06329166
110	0xbdb1f238	-0.08688778
111	0x3d78efea	0.060775675
112	0xbd3338ec	-0.043755457
113	0xbe2309dc	-0.1592173
114	0xbef8c995	-0.48591295
115	0xbe9bbf38	-0.30419326
116	0xbda25c2e	-0.07927738
117	0xbe8cc4ed	-0.27493992
118	0x3dc6b671	0.09702767
119	0xbeaf183b	-0.34198174
120	0xbe1122c5	-0.1417342
121	0xbc3ba7bc	-0.011453565
122	0xbe18fe1c	-0.14940685
123	0xbe5bc368	-0.2146126
124	0xbec60684	-0.38676846
125	0x3d109094	0.03529413
126	0xbe4073ac	-0.18794125
127	0xbeee4eb2	-0.46544415
128	0x3d4b60aa	0.049652733
129	0x3dc9cfd1	0.09854091
130	0xbf0a1de2	-0.5395185
131	0xbe48368d	-0.1955206
132	0x3da16d24	0.07882145
133	0xbd3d78a1	-0.04625762
134	0xbe334fc3	-0.17510895
135	0xbd6b3d63	-0.05743159
136	0xbdcd505c	-0.10025093
137	0x3d5fc486	0.05463078
138	0x3c9c4c84	0.019079454
139	0x3d5e3373	0.054248285
140	0xbdc0a672	-0.09406747
141	0xbd440a10	-0.04786116
142	0xbdb5fde7	-0.08886319
143	0x3e154d33	0.1458023
144	0xbd708852	-0.058723755
145	0xbd67ffe0	-0.056640506
146	0x3a987ce7	0.0011633903
147	0xbed45f71	-0.41479066
148	0x3d7c4039	0.061584685
149	0xbe3e49fd	-0.18582912
150	0xbcc20a93	-0.023686683
151	0xbf15f2e0	-0.5857372
152	0xbe889ea9	-0.26683548
153	0xbeaebe27	-0.3412945
154	0xbdc7fe7d	-0.09765337
155	0xbdc553a6	-0.09635095
156	0xbe4267af	-0.18984865
157	0xbcbb0854	-0.02283112
158	0xbe4f5c15	-0.2024997
159	0xbe59d1e0	-0.21271467
160	0xbd813e87	-0.06310754
161	0x3d02c4f0	0.031926095
162	0xbe8f43a4	-0.27981293
163	0xbe31ee14	-0.17375976
164	0xbc9daa32	-0.019246195
165	0x3d993187	0.0748015
166	0xbf46c536	-0.7764467
167	0xbe861816	-0.2619025
168	0x3b853eae	0.00406631
169	0xbe102636	-0.14077076
170	0x3d8549dd	0.06508229
171	0x3db649fe	0.08900832
172	0xbbdc523e	-0.006723671
173	0xbec35c20	-0.38156223
174	0xbea8922a	-0.32924014
175	0xbd421cd7	-0.047390785
176	0xbe1215c2	-0.14266112
177	0xbe68ad6b	-0.22722404
178	0xbeba0fa9	-0.36340073
179	0xbe90261b	-0.28154072
180	0xbe2f0516	-0.17091784
181	0xbdb01df5	-0.08599464
182	0xbd911b13	-0.07085242
183	0xbb5ecdaf	-0.0033997109
184	0x3da7183e	0.08158921
185	0xbda6b5ed	-0.08140168
186	0x3db0adc5	0.08626894
187	0xbe007432	-0.12544325
188	0x3d9beba5	0.07613305
189	0xbd8f491f	-0.069963686
190	0x3e1b6f39	0.15179147
191	0xbd10e945	-0.035378713
192	0xbdf02358	-0.11725491
193	0xbc8233b5	-0.015893796
194	0xbec5c85a	-0.3862942
195	0xbd38d1cf	-0.045121964
196	0xbd052ea7	-0.032515194
197	0xbe23e17e	-0.16003987
198	0x3d00d719	0.031455133
199	0xbec333ae	-0.38125366
200	0xbd06c9bf	-0.032907244
201	0x3e25a94f	0.16177867
202	0xbdde9ea2	-0.108701006
203	0xbe4ee468	-0.20204318
204	0xbe9f9808	-0.31170678
205	0xbc996f85	-0.018729934
206	0xbdb50df3	-0.08840551
207	0x3c8f2f5c	0.017478637
208	0xbd60dde1	-0.0548991
209	0x3de37515	0.11106316
210	0xbd02cbbb	-0.031932574
211	0xbeb95399	-0.36196592
212	0xbcfca4cc	-0.0308403
213	0xbe689613	-0.22713499
214	0x3ddaf6bf	0.10691594
215	0xbeccf878	-0.40033317
216	0xbe2d0530	-0.1689651
217	0xbeab8441	-0.3349934
218	0x3d644160	0.05572641
219	0xbe816666	-0.25273436
220	0xbe320b04	-0.17387015
221	0xbd3a2a4a	-0.045450486
222	0xbe53eedf	-0.20696591
223	0xbea1895d	-0.31550112
224	0xbe5a8b96	-0.2134231
225	0x3dd63bac	0.104606
226	0xbde14da7	-0.11001139
227	0x3d367adc	0.04455076
228	0x3de2a9cb	0.11067542
229	0x3dccca56	0.0999953
230	0xbf16aa5d	-0.58853704
231	0xbebd9a65	-0.37031856
232	0x3c4f5d87	0.012656576
233	0xbe45d9ca	-0.19321361
234	0xbb96efd5	-0.004606227
235	0xbd85cf26	-0.06533651
236	0x3dce127d	0.1006212
237	0x3b00451c	0.0019572442
238	0xbe0c3179	-0.13690747
239	0xbda0ffdb	-0.078613006
240	0x3cb1c622	0.021700922
241	0xbe5fe026	-0.2186285
242	0xbee0fa4b	-0.43940958
243	0x3dc48a57	0.09596699
244	0xbe04954b	-0.12947576
245	0xbdd0615f	-0.10174822
246	0x3df5ad2b	0.1199592
247	0xbea98e00	-0.3311615
248	0x3da14dde	0.0787618
249	0x3dd0c373	0.10193529
250	0xbeaec268	-0.34132695
251	0xbebe0610	-0.37114
252	0xbec9650c	-0.39334905
253	0xbc94a0ae	-0.018143024
254	0xbdacfaa7	-0.08446246
255	0xbf3faacc	-0.7486999

fc4.bias f4 [10]
0	0xbeb0da4d	-0.3454155
1	0xbfbc64f3	-1.4718307
2	0x3e1fc0e2	0.15600923
3	0x3eb039a3	0.34418973
4	0x3e1dec14	0.15422088
5	0xbe0872d4	-0.13325053
6	0x3c40b67d	0.011762259
7	0x3ec2f6f9	0.3807905
8	0xbe47d1cd	-0.19513626
9	0xbeeaafc4	-0.45837224
